TD3_original/exp_Free/actor.pth (torch_old, 322664 bytes, 6 tensors)

linear1.weight f4 [512, 27]
-0.03348775 -0.097887315 0.15702553 0.08544105 -0.7830698 0.21684006 -0.15717602 -0.20636563
-0.26267508 -0.022792967 -0.29253384 0.1780063 -0.3374803 -0.0394529 -0.09782189 0.015296506
0.018884579 0.18472353 -0.1785282 -0.06570603 -0.11757864 0.4815668 -0.8769924 -0.17870681
0.4240537 0.36958158 0.10139084 -0.30110064 -0.51914513 -0.059698615 -0.0074801845 -0.33231312
-0.16949795 -0.017185127 -0.7202955 0.055754293 -0.2785983 -0.31718376 0.12561332 -0.16487618
0.012561334 -0.18867813 0.110233516 -0.24787796 -0.08515083 0.117451884 0.033869125 0.03582137
0.85628814 0.14687537 -0.32086727 0.26554576 0.078663096 -0.22189614 0.37695533 0.13211088
0.15804291 0.16059709 -0.1701477 0.36671087 0.41902775 0.29119304 0.124305025 -0.413665
-0.33692995 -0.40194482 0.18369539 -0.102362484 -0.0065830476 -0.4150447 -0.9169303 -0.4685562
0.08588891 0.023060119 0.06611558 0.57029456 -0.7704232 -0.545719 -0.010455006 -0.55874455
-0.85120463 0.28645247 -0.5831198 -0.062893026 0.012314034 -0.49868232 -0.063646905 -0.17471404
-0.0731726 -0.38579634 -0.29255947 -0.65730757 -0.019738242 -0.45601422 0.05890955 -0.07502507
-0.3302929 -0.11593036 0.11910144 0.47172275 0.08232663 -0.008768765 -0.06414374 -0.057517085
0.46022853 0.59863687 -0.38244504 -0.08391493 0.13247505 0.2230412 -0.13385516 0.30505115
0.062083587 -0.26322138 -0.05385461 -0.14105962 0.05857657 0.41981468 0.17469536 0.0857659
-0.36471853 -0.06406886 0.029994216 -0.2603953 0.019521784 0.0579572 -0.07805368 -0.5215607
-0.4842811 0.9241139 -0.35169595 0.93307525 0.037900712 -0.032262478 -0.12270291 -0.15593657
0.113939725 0.0059198244 -0.13420755 -0.10580002 -0.15539126 -0.21792401 -0.16825314 0.04319901
-0.007856946 0.03727603 -0.05579767 -0.045075983 0.033359382 -0.19116712 0.054227818 -0.106849276
0.103894696 0.044156365 0.0005642415 -0.040362783 0.0087242145 0.112944335 0.028593345 -0.012968841
-0.0052945646 -0.11598795 -0.1814629 -0.120911025 -0.036097027 -0.52739424 -0.06261873 -0.2040655
0.043165497 -0.0077632307 -0.22420067 0.26013398 -0.018741284 0.09468719 -0.3214335 -0.26754326
-0.31482756 0.36182073 -0.32194832 -0.15018824 -0.34057665 -0.57840425 -0.03799502 0.19880296
-0.51249206 -0.25566563 0.40928912 0.16094163 -0.31423986 0.15626658 0.021646032 -0.10578959
0.055097476 -0.20992814 -0.1841616 -0.07527599 -0.23751386 0.104409285 -0.13660268 0.1743168
-0.03350972 0.22445352 -0.03789809 -0.2276876 -0.1828631 0.09819677 -0.12556487 0.120291516
-0.24157597 -0.17948008 -0.023360424 0.066503584 -0.026193265 -0.35023558 -0.115616314 -0.15456614
-0.19117682 0.20894739 0.106960714 0.092131466 -0.3169769 -0.088872306 -0.39099956 -0.15191181
-0.1409233 0.10001126 -0.09263042 0.16404213 -0.034200545 -0.13802542 -0.15788792 0.1811567
-0.0052835476 0.23949556 0.00073193986 -0.371796 -0.2744015 -0.25499925 0.3089523 -0.21657383
-0.26986235 0.9308724 0.36381233 0.00067919533 0.1729303 -0.085106224 -0.0045055416 -0.15507884
-0.033588547 0.2497725 -0.15813632 0.14528635 -0.3154383 -0.20413624 -0.104877226 0.4729982
00000000: 732a 09bd 2579 c8bd 4dcb 203e b8fb ae3d
00000010: 4377 48bf 520b 5e3e c0f2 20be 8351 53be
00000020: 597d 86be 51b8 babc ffc6 95be 4947 363e
00000030: 38ca acbe 5d99 21bd d856 c8bd 329e 7a3c
00000040: d5b3 9a3c 2a28 3d3e 19d0 36be e290 86bd
00000050: 12cd f0bd ec8f f63e 9382 60bf ebfe 36be
00000060: 911d d93e cc39 bd3e 00a6 cf3d dd29 9abe
00000070: b2e6 04bf 8986 74bd 561c f5bb f224 aabe
00000080: df90 2dbe d3c7 8cbc 4965 38bf 9d5e 643d
00000090: 70a4 8ebe e965 a2be c7a0 003e 4dd5 28be
000000a0: 0ece 4d3c d734 41be 1cc2 e13d b8d3 7dbe
000000b0: 8f63 aebd 9d8a f03d 5aba 0a3d 6eb9 123d
000000c0: b335 5b3f 7f66 163e b748 a4be 9df5 873e
000000d0: 1e1a a13d be38 63be 4a00 c13e 1348 073e
000000e0: 00d6 213e 9073 243e 333b 2ebe 87c1 bb3e
000000f0: ce8a d63e 4117 953e a293 fe3d e6cb d3be
00000100: 1582 acbe b6cb cdbe a51a 3c3e 6ca3 d1bd
00000110: 9bb6 d7bb bd80 d4be f2bb 6abf 99e6 efbe
00000120: 86e6 af3d 93e8 bc3c 9b67 873d d3fe 113f
00000130: 743a 45bf 3eb4 0bbf 794b 2bbc e209 0fbf
00000140: 8ce8 59bf e6a9 923e 5747 15bf 0fce 80bd
00000150: cdc0 493c 4a53 ffbe 4f59 82bd 3de8 32be
00000160: 84db 95bd 1987 c5be 5bca 95be 4f45 28bf
00000170: 18b2 a1bc b27a e9be 244b 713d bea6 99bd
00000180: 271c a9be e66c edbd 75eb f33d a585 f13e
00000190: dd9a a83d deaa 0fbc cb5d 83bd 0997 6bbd
000001a0: 13a3 eb3e 4440 193f d6cf c3be 97db abbd
000001b0: 8aa7 073e ea64 643e 5411 09be aa2f 9c3e
000001c0: 5c4b 7e3d f4c4 86be a796 5cbd ef71 10be
000001d0: fced 6f3d f3f1 d63e 57e3 323e 08a6 af3d
000001e0: 63bc babe 8936 83bd 6eb6 f53c 8852 85be
000001f0: 26ec 9f3c 8764 6d3d 9cda 9fbd 0185 05bf
00000200: b1f3 f7be bb92 6c3f 7e11 b4be 05de 6e3f
00000210: c73d 1b3d a925 04bd aa4b fbbd d6ad 1fbe
00000220: 3b59 e93d 16fb c13b b46d 09be aead d8bd
00000230: e31e 1fbe 7927 5fbe 8d4a 2cbe 72f1 303d
00000240: 6cba 00bc c0ae 183d 198c 64bd 98a1 38bd
00000250: d9a3 083d 50c1 43be fd1d 5e3d cbd3 dabd
00000260: bec6 d43d 4edd 343d 9be9 133a 7253 25bd
00000270: 02f0 0e3c 5c4f e73d 973c ea3c 437b 54bc
00000280: 077e adbb 178b edbd 69d1 39be 33a0 f7bd
00000290: 7ada 13bd 4f03 07bf 403e 80bd 8cf6 50be
000002a0: 4ece 303d b362 febb dc94 65be 4830 853e
000002b0: 5287 99bc 5ceb c13d ef92 a4be 6efb 88be
000002c0: 1431 a1be 9140 b93e 69d6 a4be f2ca 19be
000002d0: 1060 aebe 4d12 14bf aba0 1bbd 0193 4b3e
000002e0: ae32 03bf 9be6 82be 588e d13e e2cd 243e
000002f0: 0ce4 a0be 5904 203e 0553 b13c 36a8 d8bd
00000300: e4ad 613d 67f7 56be dc94 3cbe 4c2a 9abd
00000310: d536 73be 89d4 d53d 93e1 0bbe 1a80 323e
00000320: 7d41 09bd 25d7 653e 073b 1bbd f026 69be
00000330: 7740 3bbe 631b c93d 1494 00be 665b f63d
00000340: b15f 77be a0c9 37be 5c5e bfbc 0833 883d
00000350: 4293 d6bc 1452 b3be 3fc8 ecbd 9646 1ebe
00000360: dbc3 43be 4ef6 553e 380e db3d 6caf bc3d
00000370: cc4a a2be af02 b6bd 1831 c8be c58e 1bbe
00000380: 334e 10be b4d2 cc3d 05b5 bdbd a9fa 273e
00000390: df15 0cbd 8956 0dbe 5fad 21be 2481 393e
000003a0: 9c21 adbb 533e 753e a7df 3f3a 0c5c bebe
000003b0: 5a7e 8cbe 438f 82be ff2e 9e3e 88c5 5dbe
000003c0: 662b 8abe a74d 6e3f 9c45 ba3e 070c 323a
000003d0: a414 313e 2c4c aebd 39a3 93bb fdcc 1ebe
000003e0: 2594 09bd 5dc4 7f3e 7dee 21be f2c5 143e
000003f0: 2181 a1be 1709 51be dfc9 d6bd d22c f23e

linear1.bias f4 [512]
0.2812624 0.034869272 0.12887843 -0.13266413 -0.13208061 -0.24537899 -0.065317504 0.014743215
0.17077848 -0.061332654 0.26932445 0.091037415 0.004650788 0.0909592 -0.080026545 -0.22650315
-0.2884693 0.026117308 0.095724024 -0.117464475 0.02020351 0.01042734 0.050094582 0.0705957
0.10444459 -0.01826872 -0.10350786 -0.115115106 -0.024123838 -0.16854464 -0.15325558 0.013688381
-0.026225992 -0.016336748 0.2714726 0.04498299 -0.055026457 0.032480724 0.15081173 -0.07388468
0.045045692 -0.09502775 -0.1102228 -0.008805325 0.019111088 0.08425305 -0.19824658 -0.056102887
0.033409856 0.31928453 0.327978 0.01840857 0.0023038979 0.0003939343 0.13285342 0.42823443
0.0035820184 0.111051165 -0.16778038 -0.049139794 -0.11899127 0.17696397 -0.01854232 -0.31681946
-0.15572503 -0.1035612 -0.11031073 0.17069133 0.073953286 -0.02748111 -0.03500643 0.08758348
-0.0882806 0.18583083 -0.2236705 -0.19934128 0.031010147 0.035505224 0.016874522 0.015998388
0.059201125 0.0031375103 -0.13331279 0.16808896 0.05536422 -0.061526824 -0.15525289 -0.21549287
0.24232903 -0.10741433 -0.041359097 -0.23813865 0.17221603 0.23574042 -0.110110365 0.18007599
-0.15983649 0.18902484 -0.14614436 -0.2986707 0.08908283 0.30329636 -0.13128424 -0.22869112
-0.15967995 0.107266374 -0.19420245 -0.055735387 -0.2767301 0.14113969 0.22550225 0.041621134
-0.25123432 -0.1073905 0.0866691 -0.033613488 -0.18406047 0.19462492 -0.11911361 -0.20316055
-0.14516842 0.21112 0.013515885 -0.2940618 -0.08928632 0.04670275 0.09419968 -0.2845385
-0.23598224 0.18365213 -0.18199046 -0.047242787 0.011117137 -0.18361521 0.3580358 -0.15397312
-0.15577249 -0.06161252 -0.23398036 -0.3664163 0.16040874 -0.21177842 -0.16441114 -0.20396273
-0.22685033 -0.121673234 -0.09572154 -0.017322842 -0.16289161 -0.006880883 -0.15280294 0.06665094
-0.17176318 0.21272421 0.19788982 -0.07072075 0.14284556 -0.028739939 -0.110058025 -0.18155742
0.07812554 -0.05309541 -0.11612398 0.19516404 -0.020386945 0.115388185 -0.08811206 -0.1112531
0.054289423 -0.20566042 0.030720474 0.24630304 -0.37473947 0.09054798 -0.024585867 0.3195676
-0.1577177 0.22613283 0.036777932 0.24772613 -0.13831437 -0.053707764 0.1087215 0.17857523
-0.14627479 -0.22366455 -0.1721566 -0.08761936 0.09403458 -0.13884169 -0.035151605 -0.23756766
-0.2914484 -0.091618426 -0.24492897 0.099217944 0.046121895 0.08916322 -0.20885256 0.28476623
0.062359575 -0.06679105 -0.020790918 -0.09351635 0.051107604 0.034441195 -0.013976906 0.04417391
0.10023454 0.07272663 -0.10767443 0.18186674 0.021650832 -0.12048822 0.23026933 -0.15314855
-0.07650349 0.32740262 0.14171313 0.1100682 0.15520364 -0.13396525 -0.17846906 -0.108429074
0.08565654 0.02956686 -0.013044724 0.10078707 -0.020400554 -0.27672777 -0.03756115 -0.07541858
-0.0064295395 -0.120851316 -0.12579101 0.12965633 0.16828609 -0.16458385 0.16044609 -0.06860886
-0.07640915 0.08523245 0.034150355 0.025772227 -0.08591154 -0.039357804 -0.12776594 -0.32592955
-0.036607675 0.19774213 -0.01954504 -0.1138179 -0.00073267025 -0.11319275 -0.22184567 0.09950932
00000000: a001 903e 15d3 0e3d b5f8 033e 1bd9 07be
00000010: 2440 07be a144 7bbe 2fc5 85bd 878d 713c
00000020: 8ee0 2e3e f337 7bbd e5e4 893e d371 ba3d
00000030: a365 983b d148 ba3d f5e4 a3bd 71f0 67be
00000040: 40b2 93be f7f3 d53c f50a c43d 3791 f0bd
00000050: d581 a53c 6fd7 2a3c fa2f 4d3d 7a94 903d
00000060: 0ce7 d53d 48a8 95bc eefb d3bd 78c1 ebbd
00000070: 5b9f c5bc f796 2cbe 08ef 1cbe 3b45 603c
00000080: e4d7 d6bc a5d4 85bc 75fe 8a3e 1540 383d
00000090: 6c63 61bd 820a 053d 646e 1a3e da50 97bd
000000a0: d581 383d e99d c2bd 7ebc e1bd 3644 10bc
000000b0: db8e 9c3c dd8c ac3d 2701 4bbe 24cc 65bd
000000c0: c6d8 083d 4379 a33e bbec a73e 92cd 963c
000000d0: fefc 163b f788 ce39 ba0a 083e 8b41 db3e
000000e0: 4cc0 6a3b cb6e e33d 9fce 2bbe cf46 49bd
000000f0: b2b1 f3bd 0b36 353e 10e6 97bc 2936 a2be
00000100: 6276 1fbe e517 d4bd 98ea e1bd b5c9 2e3e
00000110: d274 973d 1120 e1bc e762 0fbd f85e b33d
00000120: 76cc b4bd 704a 3e3e e109 65be 1f20 4cbe
00000130: fe08 fe3c ed6d 113d 703c 8a3c 0d0f 833c
00000140: e17c 723d b09e 4d3b 2683 08be 831f 2c3e
00000150: 98c5 623d 8d03 7cbd 9dfa 1ebe 2aaa 5cbe
00000160: 1a25 783e 0bfc dbbd 2868 29bd 9eda 73be
00000170: 6659 303e f065 713e 8b81 e1bd d765 383e
00000180: 2dac 23be ba8f 413e dea6 15be 5eeb 98be
00000190: 0f71 b63d a949 9b3e 606f 06be 012e 6abe
000001a0: 2483 23be 79ae db3d 02dd 46be ca4a 64bd
000001b0: 91af 8dbe ec86 103e 10ea 663e ec7a 2a3d
000001c0: c9a1 80be 8def dbbd 927f b13d 4cae 09bd
000001d0: 597a 3cbe c14b 473e d6f1 f3bd 5209 50be
000001e0: 08a7 14be d72f 583e bb71 5d3c 458f 96be
000001f0: bfdb b6bd 624b 3f3d c3eb c03d 08af 91be
00000200: 54a5 71be 4e0f 3c3e b55b 3abe a781 41bd
00000210: a724 363c a005 3cbe 7850 b73e 21ab 1dbe
00000220: d382 1fbe 695d 7cbd 8c98 6fbe eb9a bbbe
00000230: 3042 243e 71dc 58be 655b 28be 9bdb 50be
00000240: 744b 68be d12f f9bd a809 c4bd a2e8 8dbc
00000250: 0fcd 26be 0879 e1bb 6078 1cbe 4a80 883d
00000260: b0e2 2fbe 60d4 593e a1a3 4a3e 0ad6 90bd
00000270: 1b46 123e 0570 ebbc 1a66 e1bd 30ea 39be
00000280: 4800 a03d 937a 59bd 69d2 edbd 15d9 473e
00000290: 8602 a7bc a450 ec3d 1974 b4bd aad8 e3bd
000002a0: 965e 5e3d a598 52be 81a9 fb3c dd36 7c3e
000002b0: dadd bfbe 3871 b93d 4d68 c9bc 5d9e a33e
000002c0: c080 21be 5d8f 673e 75a4 163d ebab 7d3e
000002d0: 48a2 0dbe acfc 5bbd 61a9 de3d 6ddc 363e
000002e0: 0fc9 15be 5208 65be d249 30be c771 b3bd
000002f0: 3495 c03d 842c 0ebe 21fb 0fbd f044 73be
00000300: ba38 95be 71a2 bbbd a9ce 7abe c732 cb3d
00000310: 50ea 3c3d 359b b63d 72dd 55be e1cc 913e
00000320: c16c 7f3d bfc9 88bd b751 aabc 8085 bfbd
00000330: 3556 513d 3612 0d3d 65ff 64bc b4ef 343d
00000340: c447 cd3d b3f1 943d 6984 dcbd 463b 3a3e
00000350: 165d b13c 87c2 f6bd b9cb 6b3e f9d2 1cbe
00000360: ddad 9cbd 51a1 a73e 3f1d 113e 706b e13d
00000370: b4ed 1e3e 302e 09be 98c0 36be 1010 debd
00000380: b26c af3d 3336 f23c 8ab9 55bc 7469 ce3d
00000390: 101f a7bc 43af 8dbe b8d9 19bd 0e75 9abd
000003a0: e3ae d2bb e580 f7bd 5ccf 00be a1c4 043e
000003b0: 3053 2c3e ab88 28be fb4b 243e cd82 8cbd
000003c0: 677c 9cbd 5a8e ae3d 3ee1 0b3d 4720 d33c
000003d0: 64f2 afbd a635 21bd 13d5 02be 3de0 a6be
000003e0: eef1 15bd ea7c 4a3e eb1c a0bc 5c19 e9bd
000003f0: ab10 40ba 9ad1 e7bd 832b 63be 8bcb cb3d

linear2.weight f4 [128, 512]
0.46004266 -0.22159113 -0.05646501 -0.009657777 -0.48958927 0.06547962 0.6023614 -0.10646884
-0.79011846 0.023810765 -0.3828664 -0.5455037 -0.031438578 -0.44193554 -0.23680684 0.033909388
-0.35570642 -0.22378297 -0.3942605 0.037382025 0.29252148 0.35845032 -0.07363141 0.007552025
0.6156822 0.067354165 0.21445625 -0.25439683 0.10071066 -0.31048408 -0.38116843 -0.15892868
0.2265228 -0.20248836 -0.2805924 -0.08634446 0.6101465 0.399619 -0.32698372 -0.47195548
-0.31310233 -0.0072663934 0.01907705 -0.252712 -0.1928617 0.16594273 -0.37901375 -0.80351615
-0.2300197 -0.21394403 -0.268784 0.29712662 0.020031128 -0.10390313 0.055007756 -0.2475264
-0.41511345 -0.1526977 -0.11712445 -0.4840878 -0.062391147 0.58018386 0.2944243 0.08504692
-0.7961039 -0.3557145 -0.5353006 -0.029254165 0.06159678 -0.32259193 0.07418687 0.096091315
-0.42435318 0.15170692 0.60942894 -0.0082798945 0.4215264 -0.2865896 0.089615434 -0.8996256
0.11250273 0.11951466 0.2230939 -0.093971215 -0.12300939 -0.07367598 0.018980622 0.0015235583
0.041038875 -0.38896978 0.585638 0.03490374 -0.036274757 0.31043348 -0.047286104 0.30555323
0.047382034 0.3989753 0.543381 0.365269 -0.1524186 0.17612123 -0.06396986 -0.22367176
0.17041312 0.20791519 0.15528068 -0.006944379 -0.030563865 -0.5610699 0.58202565 -0.13085137
0.4461806 0.094682224 0.2202576 0.048925236 -0.44176292 0.3142847 -0.22922328 0.3901882
0.031575706 0.044732 -0.361852 -0.18500267 -0.32980856 -0.5604307 0.17472145 0.11361436
0.05056677 -0.9701255 0.011417499 -6.0174816e-06 -0.17603678 0.12156727 0.0023825977 0.14714842
0.5131858 0.09764436 0.23116879 -0.024538452 0.34379804 -0.06653862 0.21348755 0.2701342
-0.032097224 -0.051788025 0.10485393 0.096265025 0.013273946 -0.095077954 -0.19461341 -0.17862874
0.21343617 -0.006855612 0.44067267 -0.013381954 0.42503887 -1.3430475 -0.121397875 0.54181874
-0.07076559 -0.013889637 -0.23783864 -0.27235478 -0.0330375 -0.04889982 -0.21357845 0.110881954
0.18932424 -0.4840755 -0.40645665 0.3288857 -0.021630554 -0.0958153 0.080338545 -0.20429866
-0.043255452 -0.39683592 -0.5302534 0.6772479 -0.2179924 0.044455238 -0.2546603 0.2172811
0.0454925 -0.10017657 0.3341014 0.45582163 0.6885538 0.124092095 -0.32092586 0.3715589
0.07837768 -0.6145588 0.13169752 0.430223 0.28627905 -0.51163733 0.65708816 -0.033138264
0.39055043 -0.023259664 -1.0346905 -0.037346914 -0.43099758 -0.74081695 0.21840087 0.25235558
-0.15115404 -0.27125728 -0.040964205 -0.315614 0.007460766 0.07632416 0.15652189 0.012468688
0.043685514 -0.1491296 -0.106559604 0.16016975 -0.025565004 0.20609672 -0.1372422 -0.26941144
-0.12632729 -0.06452221 0.3852848 0.34599787 0.36134613 0.042144675 -0.30864608 0.11882413
0.30522114 -0.37321085 0.033466484 -0.6616516 0.6250066 -0.2590682 -0.121854216 0.04533902
-0.028471619 0.0045510535 0.0061779465 0.21697529 0.21573536 0.022422567 0.21319582 -0.7599229
-0.25636262 0.5726354 -0.4208711 0.5187533 -0.5066708 -0.054974005 0.12381907 -0.37305778
00000000: b68a eb3e c9e8 62be db47 67bd a73b 1ebc
00000010: 72ab fabe 2e1a 863d 5b34 1a3f 560c dabd
00000020: 3445 4abf cb0e c33c 1107 c4be 21a6 0bbf
00000030: bdc5 00bd 6045 e2be 7e7d 72be 92e4 0a3d
00000040: 271f b6be 5d27 65be 83dc c9be e51d 193d
00000050: 60c5 953e cd86 b73e 11cc 96bd fa76 f73b
00000060: 599d 1d3f fbf0 893d 6b9a 5b3e 4d40 82be
00000070: 6441 ce3d c5f7 9ebe 8228 c3be 33be 22be
00000080: 98f5 673e 1c59 4fbe cfa9 8fbe 5dd5 b0bd
00000090: 9032 1c3f dd9a cc3e 696a a7be 26a4 f1be
000000a0: f34e a0be ed1a eebb 7947 9c3c 7863 81be
000000b0: 8a7d 45be e4ec 293e 170e c2be 3cb3 4dbf
000000c0: 498a 6bbe 2514 5bbe 0e9e 89be fb20 983e
000000d0: 5218 a43c 2acb d4bd d04f 613d 9077 7dbe
000000e0: c089 d4be c95c 1cbe f2de efbd 5bda f7be
000000f0: dc8d 7fbd ee86 143f c8be 963e 142d ae3d
00000100: 77cd 4bbf 3620 b6be 7609 09bf 6ea6 efbc
00000110: e84c 7c3d c52a a5be 49ef 973d 86cb c43d
00000120: d244 d9be 0f59 1b3e 8903 1c3f 65a8 07bc
00000130: 4fd2 d73e dfbb 92be 4c88 b73d dd4d 66bf
00000140: d567 e63d 1ac4 f43d ba72 643e fb73 c0bd
00000150: 59ec fbbd 6fe3 96bd 407d 9b3c 22b2 c73a
00000160: 6118 283d 0c27 c7be 5fec 153f 39f7 0e3d
00000170: d794 14bd 23f1 9e3e 13af 41bd 7971 9c3e
00000180: aa13 423d 7e46 cc3e 041b 0b3f 8a04 bb3e
00000190: 9f13 1cbe 2059 343e a102 83bd 360a 65be
000001a0: c780 2e3e b8e7 543e e601 1f3e ac8d e3bb
000001b0: 1261 fabc 47a2 0fbf a2ff 143f e7fd 05be
000001c0: c971 e43e c1e8 c13d 358b 613e d465 483d
000001d0: c02e e2be ede9 a03e 82b9 6abe bfc6 c73e
000001e0: 8755 013d e738 373d aa44 b9be 5771 3dbe
000001f0: abdc a8be 6378 0fbf 2eea 323e a5ae e83d
00000200: 1a1f 4f3d 255a 78bf 7610 3b3c c6e9 c9b6
00000210: fc42 34be 43f8 f83d 5b25 1c3b 13ae 163e
00000220: 2560 033f c4f9 c73d 83b7 6c3e dd04 c9bc
00000230: 4c06 b03e 6645 88bd 7b9c 5a3e 084f 8a3e
00000240: 6178 03bd ae1f 54bd a8bd d63d 9926 c53d
00000250: f77a 593c 3bb8 c2bd bd48 47be 74ea 36be
00000260: 038f 5a3e 0ba5 e0bb d99f e13e fc3f 5bbc
00000270: b29e d93e fbe8 abbf 739f f8bd a2b4 0a3f
00000280: 8ded 90bd 5c91 63bc f98b 73be 1672 8bbe
00000290: 5452 07bd 2d4b 48bd 4fb4 5abe 1416 e33d
000002a0: 37de 413e bed8 f7be 161b d0be b563 a83e
000002b0: 8f32 b1bc d03a c4bd 8988 a43d ab33 51be
000002c0: a12c 31bd 142e cbbe b0be 07bf 1e60 2d3f
000002d0: 6639 5fbe b216 363d d662 82be f07e 5e3e
000002e0: 5856 3a3d 6029 cdbd 570f ab3e 7461 e93e
000002f0: 1045 303f ff23 fe3d 6550 a4be f83c be3e
00000300: 7a84 a03d ba53 1dbf b7db 063e 3046 dc3e
00000310: 2b93 923e aafa 02bf ee36 283f fdbb 07bd
00000320: 3af6 c73e 0d8b bebc bd70 84bf 14f9 18bd
00000330: b7ab dcbe 2ea6 3dbf 7aa4 5f3e c034 813e
00000340: 20c8 1abe 3ce2 8abe 15ca 27bd 2998 a1be
00000350: 7179 f43b d74f 9c3d 4647 203e 7849 4c3c
00000360: 95ef 323d 6eb5 18be ec3b dabd 8a03 243e
00000370: b36d d1bc 050b 533e 3889 0cbe 4cf0 89be
00000380: f15b 01be 3824 84bd 0d44 c53e a226 b13e
00000390: 5c02 b93e e59f 2c3d dc06 9ebe 115a f33d
000003a0: f245 9c3e 7e15 bfbe 2714 093d 0062 29bf
000003b0: 6f00 203f 96a4 84be b48e f9bd 69b5 393d
000003c0: 503d e9bc 0121 953b 5f70 ca3b c52e 5e3e
000003d0: bbe9 5c3e 88af b73c 0150 5a3e 4f8a 42bf
000003e0: f641 83be 3c98 123f 6b7c d7be 04cd 043f
000003f0: 2db5 01bf 6c2c 61bd da94 fd3d 6e01 bfbe

linear2.bias f4 [128]
-0.16222692 0.09451062 -0.15638734 -0.028540304 -0.15106156 -0.09541976 -0.034468934 -0.19222257
-0.094602525 0.022979617 -0.02522667 0.0298689 -0.007877384 -0.37345788 -0.07888976 -0.20560972
-0.17510693 -0.008637721 -0.042131264 -0.11934788 0.19493683 -0.057176765 -0.024113849 -0.014753796
-0.01430825 -0.15880224 -0.02398674 0.17705172 -0.0865449 0.08033753 -0.11418032 -0.059495244
-0.061428893 0.08670682 -0.1258161 -0.028765619 -0.123713486 -0.06904765 -0.021764912 -0.027645037
-0.0040059867 -0.086133935 0.18462962 -0.0983924 -0.015384176 -0.056414668 -0.110317 -0.020159619
-0.08689379 -0.0011202194 -0.038005523 -0.043041307 -0.039240014 -0.08265587 -0.04283433 -0.028048053
-0.06449458 -0.07233053 -0.016464964 -0.26515085 -0.31221643 -0.06763034 -0.028865242 -0.025728112
0.24957928 0.17479149 -0.047906846 -0.09601532 -0.07087449 0.07421282 -0.07572298 -0.032781776
-0.03673355 -0.09812551 -0.04393321 -0.009268923 0.12616053 -0.029067691 -0.067711264 -0.0064884075
-0.0478142 -0.01883355 -0.046979465 -0.06884261 -0.11717189 -0.19069235 -0.0470601 0.2441785
-0.29983562 -0.07718318 -0.13058898 0.12379428 -0.008927515 0.21481356 -0.12507777 -0.02210786
0.020134473 -0.00412832 -0.034737706 -0.0105199665 -0.01999344 -0.09131142 0.0073668356 -0.06316324
-0.027027372 -0.046617165 -0.048757926 -0.09283845 0.002190561 0.20808785 -0.20072702 -0.0616407
0.3723051 0.35403877 -0.05633646 -0.31631574 -0.073712684 -0.031648632 -0.0536934 -0.043328494
0.053319782 -0.07890432 -0.10146781 -0.048351485 -0.045744974 0.045356188 0.28756467 -0.062998734
00000000: d01e 26be c98e c13d 0124 20be 5bcd e9bc
00000010: e2af 1abe 6f6b c3bd 4c2f 0dbd fed5 44be
00000020: f8be c1bd c03f bc3c 29a8 cebc a0af f43c
00000030: 2510 01bc df35 bfbe f490 a1bd 5b8b 52be
00000040: 3b4f 33be 3a85 0dbc d591 2cbd a96c f4bd
00000050: 859d 473e 2f32 6abd 688a c5bc e8b9 71bc
00000060: 266d 6abc 0e9d 22be d77f c4bc 0c4d 353e
00000070: 743e b1bd 0188 a43d 5fd7 e9bd 49b1 73bd
00000080: dd9c 7bbd 5893 b13d f0d5 00be e0a5 ebbc
00000090: 7f5d fdbd db68 8dbd 544c b2bc d877 e2bc
000000a0: a744 83bb fd66 b0bd 8c0f 3d3e f481 c9bd
000000b0: e90d 7cbc 1113 67bd e1ed e1bd c925 a5bc
000000c0: 5ff5 b1bd 53d4 92ba aeab 1bbd 154c 30bd
000000d0: 23ba 20bd 7b47 a9bd 0d73 2fbd 08c5 e5bc
000000e0: bc15 84bd 0722 94bd 88e1 86bc dac1 87be
000000f0: d5da 9fbe c781 8abd cd76 ecbc c3c3 d2bc
00000100: b691 7f3e 8afc 323e f839 44bd aea3 c4bd
00000110: a526 91bd e4fc 973d a614 9bbd 2f46 06bd
00000120: eb75 16bd 07f6 c8bd 4ff3 33bd aedc 17bc
00000130: 3a30 013e 5e1f eebc 34ac 8abd b59c d4bb
00000140: d3d8 43bd d148 9abc 8a6d 40bd 5bfd 8cbd
00000150: d1f7 efbd db44 43be 17c2 40bd ee09 7a3e
00000160: 0e84 99be 3712 9ebd 1eb9 05be db87 fd3d
00000170: b644 12bc 16f8 5b3e 6314 00be 8b1b b5bc
00000180: 0df1 a43c dc46 87bb 2049 0ebd f05b 2cbc
00000190: 48c9 a3bc 7b01 bbbd 7f65 f13b bb5b 81bd
000001a0: 8268 ddbc a4f1 3ebd 64b6 47bd 1622 bebd
000001b0: 848f 0f3b fb14 553e 628b 4dbe f57a 7cbd
000001c0: c69e be3e 9244 b53e 0fc1 66bd 23f4 a1be
000001d0: adf6 96bd ffa1 01bd 9ced 5bbd 3879 31bd
000001e0: d865 5a3d 9798 a1bd 5bce cfbd 350c 46bd
000001f0: 155f 3bbd 69c7 393d ad3b 933e 7b05 81bd

linear3.weight f4 [3, 128]
1.142929 -1.738579 -0.2900796 -0.03278293 -0.37083948 0.85815513 -0.043940455 -1.0768913
0.043997806 0.5460913 -0.028648227 0.42332205 0.18897943 -0.1801925 -0.015078721 -0.06569798
-0.065559275 -0.06078378 -0.0034685228 0.07764539 -0.19486704 0.034397386 -0.008582247 -0.04822537
-0.0059231017 0.1524653 -0.014231301 -0.30944532 0.536046 1.0797647 -0.036478773 -0.008704795
-0.008374924 0.63549626 -0.7368312 -0.00082876126 0.19587591 -0.06718505 0.04473921 0.0044385837
-0.019412884 -0.6882435 1.5524429 0.024572657 0.062023103 0.043049168 0.028430386 0.3560055
-0.20176618 0.018947132 -0.15777652 -0.7763136 -0.04029863 0.06725925 0.053902127 -1.224809
-0.009940386 0.042766243 -0.012142411 -1.1568694 -0.7292349 -0.01063852 0.0041931537 0.024238465
0.03321592 0.8274535 -0.06832788 0.28270277 -0.6716451 -0.2853273 0.47252235 0.07478736
-0.94750375 0.63691294 -0.04905791 0.0037653393 -0.12760748 0.013754079 0.022704612 -0.019032493
-0.0741494 -0.0013497908 -0.011369059 -0.048353575 0.47432694 0.33545813 0.052242253 -0.4159416
-0.44505617 0.28099692 -1.1962894 0.52975076 -0.014740243 -0.3501107 0.62531865 0.0060166735
0.21147023 -0.97856545 0.024921395 -0.007730068 0.008032537 1.3682175 0.0062147793 -0.24424107
0.025450198 -0.3058879 -0.027499644 -0.60950965 -0.050644472 0.62363034 -0.021821124 -0.043576762
-0.10665547 0.6166953 0.010901039 0.20035361 0.010148949 0.54083014 0.03749548 -0.0111041255
0.5920526 -0.022846151 0.03388589 0.04686633 0.007590878 -0.12502462 -0.1662138 0.04241232
0.73916346 -0.747053 0.28266278 0.024895445 -0.049513742 -0.42330435 -0.017633691 -1.3913642
-0.0093273865 -0.14628254 -0.030742321 0.011871291 1.0974107 -0.16788574 -0.099651024 -0.051490005
1.0977837 -0.032117594 -0.031238055 -0.58544695 1.2192892 0.09071075 0.059890818 -0.013060767
-0.040970217 -0.60342973 -0.057131 0.4469295 0.6170216 0.06889342 0.039475217 0.025280403
0.041792553 -0.37800923 1.0095822 0.007925126 0.1282872 0.011417889 0.016033512 0.024356417
0.013465245 0.83423555 0.16725215 -0.06472115 -0.04902373 0.0075187967 0.027991368 -0.62088764
0.12434506 0.000819858 -0.5060044 0.47377706 0.042155776 -0.020095449 0.02900918 -1.3256015
0.025111718 0.027732491 -0.018912258 -1.4650948 -0.3153731 -0.017333686 0.054245375 0.03832879
0.5972623 2.0533063 -0.0490223 0.20363961 -0.57722837 -0.06404444 0.26078296 -0.45006016
-1.3526541 -0.29456067 0.0545178 0.05635167 0.5906698 -0.004961662 -0.03457328 0.07310889
-0.015196143 0.020026177 -0.018992784 0.020921635 -0.6145481 0.8951827 -0.02836988 0.302483
-0.36523113 0.07232364 -0.8480239 0.41926578 -0.0081715435 0.60150474 -0.75591123 0.044579975
0.7722546 0.5790165 0.0024110032 -0.0013326068 0.024202613 -0.55848145 0.07239587 -0.33750725
0.011824869 -0.24544948 -0.013435302 -1.9977533 -0.011874031 0.04511932 -0.77752125 0.02223598
0.69483906 0.5185525 -0.053164434 -0.8429209 0.06786467 -0.85138744 0.016744832 0.012143328
0.16043638 0.028100165 -0.076364286 -0.05936892 -0.038165763 0.482647 0.62304705 -0.03002241
00000000: 7f4b 923f c289 debf 5085 94be 6547 06bd
00000010: acde bdbe 0eb0 5b3f e8fa 33bd 93d7 89bf
00000020: 0b37 343d a4cc 0b3f b0af eabc abbd d83e
00000030: d383 413e 6284 38be bd0c 77bc aa8c 86bd
00000040: f143 86bd 6af8 78bd 2850 63bb 8c04 9f3d
00000050: 3a8b 47be 46e4 0c3d 8e9c 0cbc f787 45bd
00000060: 9416 c2bb dd1f 1c3e 672a 69bc 9e6f 9ebe
00000070: 503a 093f bb35 8a3f c46a 15bd 8e9e 0ebc
00000080: fa36 09bc e2af 223f f8a0 3cbf 3a41 59ba
00000090: b293 483e 5198 89bd 7640 373d 8a71 913b
000000a0: c507 9fbc ba30 30bf 73b6 c63f 994c c93c
000000b0: f00b 7e3d 5354 303d d7e6 e83c 5a46 b63e
000000c0: cb9b 4ebe 0437 9b3c 2b90 21be 7dbc 46bf
000000d0: 2d10 25bd 38bf 893d 7ac8 5c3d 8bc6 9cbf
000000e0: 00dd 22bc a82b 2f3d f7f0 46bc 4c14 94bf
000000f0: 23af 3abf 304d 2ebc b966 893b bf8f c63c
00000100: 6b0d 083d fed3 533f 7def 8bbd 6bbe 903e
00000110: eff0 2bbf 6b16 92be 73ee f13e 1e2a 993d
00000120: 9b8f 72bf ba0c 233f f2f0 48bd e9c3 763b
00000130: 89ab 02be ca58 613c 06ff b93c 08ea 9bbc
00000140: a4db 97bd 77eb b0ba 4a45 3abc 660e 46bd
00000150: fbda f23e 2bc1 ab3e f9fb 553d 4cf6 d4be
00000160: 67de e3be d4de 8f3e 0320 99bf bf9d 073f
00000170: 0f81 71bc b641 b3be e214 203f 8427 c53b
00000180: a78b 583e 4483 7abf f427 cc3c 834c fdbb
00000190: e79a 033c c021 af3f 59a5 cb3b 551a 7abe
000001a0: ef7c d03c 579d 9cbe ef46 e1bc d308 1cbf
000001b0: 9470 4fbd 3da6 1f3f 37c2 b2bc 8c7d 32bd
000001c0: 2f6e dabd bedf 1d3f 459a 323c 7f29 4d3e
000001d0: c747 263c d873 0a3f dc94 193d 14ee 35bc
000001e0: c290 173f da27 bbbc eecb 0a3d e9f6 3f3d
000001f0: e6bc f83b 7406 00be f333 2abe 8ab8 2d3d
00000200: d139 3d3f de3e 3fbf 2db9 903e 88f1 cb3c
00000210: ecce 4abd 59bb d8be 8874 90bc 3918 b2bf
00000220: e5d1 18bc 17cb 15be 52d7 fbbc ce7f 423c
00000230: f477 8c3f 3dea 2bbe d615 ccbd 2fe7 52bd
00000240: 2d84 8c3f bd8d 03bd f3e6 ffbc dadf 15bf
00000250: ab11 9c3f 8fc6 b93d 1350 753d d4fc 55bc
00000260: 63d0 27bd 5f7a 1abf 3202 6abd f2d3 e43e
00000270: 21f5 1d3f fe17 8d3d c4b0 213d d918 cf3c
00000280: ab2e 2b3d 6d8a c1be fd39 813f 63d8 013c
00000290: b85d 033e 1912 3b3c b658 833c 1c87 c73c
000002a0: 559d 5c3c 7690 553f 2644 2b3e 868c 84bd
000002b0: 1bcd 48bd 3d60 f63b 274e e53c 7ef2 1ebf
000002c0: 9fa8 fe3d bdeb 563a 8189 01bf e892 f23e
000002d0: 89ab 2c3d 369f a4bc a9a4 ed3c 4fad a9bf
000002e0: 17b7 cd3c 402f e33c e1ed 9abc 3a88 bbbf
000002f0: 9578 a1be 60ff 8dbc 6630 5e3d a6fe 1c3d
00000300: 2fe6 183f 5f69 0340 9bcb 48bd e786 503e
00000310: 3dc5 13bf bb29 83bd 5885 853e 496e e6be
00000320: c523 adbf a8d0 96be 0f4e 5f3d 02d1 663d
00000330: 2336 173f 7095 a2bb b69c 0dbd 1dba 953d
00000340: 3ef9 78bc f00d a43c c196 9bbc d963 ab3c
00000350: 0653 1dbf b22a 653f f367 e8bc 0ddf 9a3e
00000360: 93ff babe 6b1e 943d 1818 59bf 01aa d63e
00000370: f0e1 05bc 37fc 193f 6683 41bf 7e99 363d
00000380: 7ab2 453f 6d3a 143f ec01 1e3b ddaa aeba
00000390: 8f44 c63c a4f8 0ebf 4944 943d c0cd acbe
000003a0: 18bd 413c 1c57 7bbe be1f 5cbc 61b6 ffbf
000003b0: 4c8b 42bc 09cf 383d a20b 47bf 3b28 b63c
000003c0: f9e0 313f dbbf 043f f3c2 59bd aac9 57bf
000003d0: a2fc 8a3d 87f4 59bf 752c 893c cff4 463c
000003e0: 6f49 243e 5132 e63c e164 9cbd d32c 73bd
000003f0: b453 1cbd 821d f73e 0380 1f3f 8ff1 f5bc

linear3.bias f4 [3]
-0.29258373 0.17896985 -0.12270472
00000000: 89cd 95be df43 373e 9d4c fbbd
