TD3_original/exp_Free/actor_target.pth (torch_old, 322664 bytes, 6 tensors)

linear1.weight f4 [512, 27]
0	0xbc9a6766	-0.018848132
1	0xbdddf254	-0.10837236
2	0x3e19b398	0.15009916
3	0x3da8030f	0.082037084
4	0xbf4827ee	-0.7818593
5	0x3e5a8e55	0.21343358
6	0xbe21715f	-0.15765904
7	0xbe565b14	-0.20933181
8	0xbe871db8	-0.2638986
9	0xbc9e1d04	-0.019300945
10	0xbe97d819	-0.29657057
11	0x3e31e128	0.17371047
12	0xbeaace20	-0.33360386
13	0xbd2733f9	-0.04082105
14	0xbdcb312b	-0.099214874
15	0x3cd7dbab	0.026349863
16	0x3c5b39d6	0.013380488
17	0x3e38f446	0.18061933
18	0xbe362327	-0.17786847
19	0xbd8ed24a	-0.06973703
20	0xbdf7a4ea	-0.12092002
21	0x3ef47792	0.47747475
22	0xbf60ceed	-0.87815744
23	0xbe3ed9b8	-0.1863774
24	0x3ed9ac2e	0.42514175
25	0x3ebc3e53	0.367663
26	0x3dcc5bb3	0.09978428
27	0xbe98cdcc	-0.2984451
28	0xbf067715	-0.52525455
29	0xbd971a12	-0.073780194
30	0xbb9d10f3	-0.0047932803
31	0xbeacb4c0	-0.3373165
32	0xbe3eed91	-0.18645312
33	0xbc6e0d36	-0.014529517
34	0xbf3bf0ee	-0.73414505
35	0x3d1f0795	0.03882559
36	0xbe8d4891	-0.27594426
37	0xbea477cc	-0.32122648
38	0x3de5ed7f	0.112269394
39	0xbe25e79d	-0.16201635
40	0x3bac1adc	0.0052522253
41	0xbe496c9c	-0.19670337
42	0x3dd5dffb	0.104431115
43	0xbe84e5cc	-0.2595657
44	0xbdbfc118	-0.093630016
45	0x3dfaf8fb	0.122545205
46	0x3cf9ba55	0.030484358
47	0x3cfd76ac	0.030940376
48	0x3f5787f4	0.84191823
49	0x3e0b5459	0.13606395
50	0xbea7806e	-0.32715172
51	0x3e8bd755	0.27312723
52	0x3d8bc0f1	0.0682391
53	0xbe7028bd	-0.2345304
54	0x3eb749f9	0.35798624
55	0x3e09b3aa	0.13447443
56	0x3e1efd23	0.15526251
57	0x3e1cd547	0.15315734
58	0xbe311d40	-0.17296314
59	0x3eba1db7	0.36350796
60	0x3edb66f1	0.42851976
61	0x3e9457c9	0.28973225
62	0x3dfadc5b	0.12249061
63	0xbed8fee8	-0.42381978
64	0xbea79521	-0.32730964
65	0xbecdb890	-0.40179873
66	0x3e4ff860	0.20309591
67	0xbdd77659	-0.1052062
68	0xbc123d98	-0.008925818
69	0xbed5aefe	-0.4173507
70	0xbf698b4c	-0.91228175
71	0xbef05f84	-0.46947873
72	0x3dcf453d	0.10120628
73	0x3ca58f26	0.02020986
74	0x3d81ec82	0.063439384
75	0x3f11f648	0.5701642
76	0xbf486265	-0.7827514
77	0xbf08d833	-0.53454894
78	0xbbfde2ed	-0.007747999
79	0xbf105e20	-0.56393623
80	0xbf590e6b	-0.84787625
81	0x3e92a98c	0.2864498
82	0xbf154714	-0.5831158
83	0xbd8f58c0	-0.069993496
84	0x3c49e44a	0.012322495
85	0xbeff5326	-0.49868125
86	0xbd918638	-0.07105678
87	0xbe32e83e	-0.17471406
88	0xbd93cf90	-0.07217324
89	0xbec663ef	-0.38748118
90	0xbe95ca54	-0.29255927
91	0xbf284531	-0.6573058
92	0xbceae18b	-0.028672
93	0xbef009ed	-0.46882573
94	0x3d522c58	0.05131182
95	0xbda7b21f	-0.08188271
96	0xbea91c09	-0.33029202
97	0xbdff98e3	-0.12480333
98	0x3de2065b	0.110363685
99	0x3eedf6ae	0.46477264
100	0x3d9b0e09	0.07571036
101	0xbc81f65c	-0.015864544
102	0xbd87e815	-0.06636063
103	0xbd6a0837	-0.05713674
104	0x3eea8a15	0.45808473
105	0x3f16e1d7	0.58938354
106	0xbec796f5	-0.3898236
107	0xbdbeb0c0	-0.09311056
108	0x3e0f83d2	0.14015129
109	0x3e627acf	0.2211716
110	0xbe0a8fbc	-0.13531393
111	0x3e9e9f68	0.30980992
112	0x3d68ccb1	0.056835834
113	0xbe88a7f2	-0.26690632
114	0xbd43a82e	-0.04776781
115	0xbe0deaa7	-0.13859044
116	0x3d67dfd2	0.056609936
117	0x3ed9088c	0.42389333
118	0x3e2ff4b0	0.17183185
119	0x3daad7f6	0.083419725
120	0xbebb4d66	-0.36582488
121	0xbd733b71	-0.05938286
122	0x3cfd7fef	0.030944793
123	0xbe85bf21	-0.26122382
124	0x3c91f3fa	0.017816532
125	0x3d64c793	0.05585439
126	0xbda5defe	-0.08099173
127	0xbf05f720	-0.5233021
128	0xbef9c56a	-0.48783427
129	0x3f6b7410	0.9197397
130	0xbeb69603	-0.35661325
131	0x3f6de564	0.9292815
132	0x3d324e4a	0.043531694
133	0xbd0bc5c5	-0.034124155
134	0xbe019fb6	-0.12658581
135	0xbe1fad94	-0.15593559
136	0x3de9595c	0.11393997
137	0x3bc1fb3a	0.005919841
138	0xbe096d7b	-0.1342067
139	0xbdd8ad64	-0.10579947
140	0xbe1f1e9c	-0.1553902
141	0xbe5f2734	-0.21792299
142	0xbe2c4a7d	-0.1682529
143	0x3d30f181	0.043199066
144	0xbc00ba3c	-0.007856902
145	0x3d18aef3	0.03727622
146	0xbd648c11	-0.05579764
147	0xbd38a17a	-0.04507587
148	0x3d08a3ea	0.033359446
149	0xbe43c123	-0.19116645
150	0x3d5e1e5b	0.054228168
151	0xbddad3c8	-0.10684925
152	0x3dd4c6f3	0.10389509
153	0x3d34dd69	0.044156466
154	0x3a13e9db	0.0005642452
155	0xbd255349	-0.04036263
156	0x3c0ef06a	0.008724311
157	0x3de74f19	0.112943836
158	0x3cea3c51	0.028593214
159	0xbc547b8f	-0.012968912
160	0xbbad7de9	-0.0052945507
161	0xbded8acd	-0.1159874
162	0xbe39d162	-0.1814628
163	0xbe00c033	-0.12573318
164	0xbd24be39	-0.040220473
165	0xbf07031f	-0.5273914
166	0xbd834907	-0.06410413
167	0xbe541042	-0.20709327
168	0x3d30cdf6	0.04316517
169	0xbc7bf770	-0.015378818
170	0xbe6bf57c	-0.23042864
171	0x3e806f6c	0.25085008
172	0xbca012ac	-0.019540153
173	0x3dbc952a	0.09208138
174	0xbea492b5	-0.3214318
175	0xbe88d38f	-0.26723906
176	0xbea375c6	-0.31925792
177	0x3eb74736	0.35796517
178	0xbea5a99f	-0.32355973
179	0xbe1ad15e	-0.1511893
180	0xbeae6078	-0.34057975
181	0xbf141218	-0.5784011
182	0xbd23abc0	-0.039958715
183	0x3e4ad05d	0.19806047
184	0xbf01b5c5	-0.50667983
185	0xbe823ea1	-0.25438407
186	0x3ecfcc1d	0.40585414
187	0x3e1ef5ef	0.15523504
188	0xbea1d045	-0.3160421
189	0x3e03515f	0.1282401
190	0x3cee4c56	0.029089134
191	0xbdcbb5f8	-0.09946817
192	0x3d658adb	0.056040626
193	0xbe52784c	-0.20553702
194	0xbe3660c6	-0.17810354
195	0xbdb70e96	-0.08938329
196	0xbe623ac9	-0.22092737
197	0x3dec78b9	0.115464635
198	0xbe044a8b	-0.12919061
199	0x3e36c0d9	0.17847003
200	0xbcf42d96	-0.029806893
201	0x3e5f94b5	0.21834071
202	0xbd2b7d5f	-0.04186761
203	0xbe62dc9f	-0.22154473
204	0xbe3999a3	-0.18125014
205	0x3dce53ab	0.10074552
206	0xbdfc1db5	-0.12310354
207	0x3df2e0ca	0.11859281
208	0xbe6c503d	-0.23077483
209	0xbe35a573	-0.17738895
210	0xbce11197	-0.027474208
211	0x3d81c9ca	0.06337316
212	0xbcd61995	-0.026135245
213	0xbeb4f76c	-0.35345018
214	0xbdf76301	-0.1207943
215	0xbe1a809a	-0.1508812
216	0xbe4929f7	-0.19644915
217	0x3e550407	0.20802318
218	0x3dd9749c	0.106179446
219	0x3dbe0c7f	0.09279727
220	0xbea0ebbe	-0.31429857
221	0xbdb31db5	-0.087459005
222	0xbec608b5	-0.38678518
223	0xbe1c88cb	-0.15286557
224	0xbe1137f7	-0.14181505
225	0x3de20069	0.110352345
226	0xbdc003de	-0.093757376
227	0x3e271b41	0.1631899
228	0xbccc0afe	-0.024907585
229	0xbe0f3f29	-0.13988937
230	0xbe23a99a	-0.15982667
231	0x3e3e1bea	0.18565336
232	0xbb8dfa34	-0.004332805
233	0x3e7410ed	0.23834582
234	0x3a733ad2	0.0009278479
235	0xbebd91b8	-0.37025237
236	0xbe8c5247	-0.27406523
237	0xbe809c4c	-0.25119245
238	0x3e9cf6d7	0.30657074
239	0xbe5ccf83	-0.21563534
240	0xbe8a52c5	-0.27016273
241	0x3f6e5ca8	0.9311013
242	0x3eb8ccee	0.3609385
243	0x3b773a51	0.0037723968
244	0x3e2b5e4f	0.16735195
245	0xbdba7971	-0.09105194
246	0x3b3707c7	0.002792822
247	0xbe21f686	-0.15816697
248	0xbd12e3d6	-0.035861813
249	0x3e808b35	0.25106207
250	0xbe225872	-0.15854052
251	0x3e123875	0.14279349
252	0xbe9f090c	-0.3106159
253	0xbe56fa7a	-0.20993987
254	0xbddd4ea5	-0.10806016
255	0x3ef14869	0.47125557

linear1.bias f4 [512]
0	0x3e8e165d	0.27751437
1	0x3cf9e48a	0.030504484
2	0x3e014e71	0.1262758
3	0xbe102fc0	-0.14080715
4	0xbe085363	-0.1331306
5	0xbe7b447a	-0.2453784
6	0xbd8e4764	-0.069472104
7	0x3c8c5a77	0.01713298
8	0x3e2e1cea	0.17003217
9	0xbd896070	-0.06707847
10	0x3e88c0c7	0.26709577
11	0x3da47af2	0.080312625
12	0xbb5ab648	-0.0033372808
13	0x3dc0428c	0.09387693
14	0xbd95fcd9	-0.073236175
15	0xbe67f06d	-0.22650309
16	0xbe97f577	-0.29679462
17	0x3d3ad2b8	0.045611113
18	0x3dcd2ab2	0.10017909
19	0xbdec3350	-0.115332246
20	0x3cf9f992	0.030514512
21	0x3be6fc34	0.007049108
22	0x3d5c527f	0.053789612
23	0x3d91e20b	0.071231924
24	0x3dd80601	0.1054802
25	0xbcb5b15f	-0.022179304
26	0xbdd594e1	-0.10428787
27	0xbe00a5e9	-0.1256329
28	0xbca43a51	-0.020047339
29	0xbe27e908	-0.16397488
30	0xbe1df56c	-0.15425652
31	0x3c52cb9a	0.012865925
32	0xbcb626c6	-0.022235285
33	0xbc64ea38	-0.013971858
34	0x3e92414f	0.28565452
35	0x3d579724	0.052634373
36	0xbd6490b1	-0.05580205
37	0x3d0c0573	0.034184884
38	0x3e128bca	0.14311138
39	0xbd96bf2b	-0.07360681
40	0x3d26a16a	0.04068128
41	0xbdc29dbb	-0.09502741
42	0xbde70434	-0.112800986
43	0xbc8aa5e3	-0.016924804
44	0x3cc34d0b	0.023840448
45	0x3db39933	0.08769455
46	0xbe484f7c	-0.19561571
47	0xbd799151	-0.0609296
48	0x3d145e24	0.036222592
49	0x3ea0ad52	0.31382233
50	0x3ea3ddcd	0.32005158
51	0x3b209733	0.0024504184
52	0xbb0a4087	-0.002109559
53	0xbab37b00	-0.0013693273
54	0x3e06c467	0.13160859
55	0x3ed1b7f3	0.40960655
56	0x3b19b14e	0.002345163
57	0x3de03ca7	0.109490685
58	0xbe2c0bac	-0.16801327
59	0xbd42081e	-0.047371022
60	0xbdf3b125	-0.11899022
61	0x3e35315c	0.1769461
62	0xbc8515fc	-0.016245835
63	0xbea382ec	-0.31935823
64	0xbe1def76	-0.15423378
65	0xbdd0f473	-0.10202875
66	0xbdd28955	-0.102801
67	0x3e39869e	0.18117759
68	0x3d9eb96d	0.07750211
69	0xbcf8b3b0	-0.03035912
70	0xbd11beb0	-0.035582244
71	0x3dad6f88	0.084685385
72	0xbdb70bf8	-0.0893783
73	0x3e3e7787	0.18600284
74	0xbe6ac550	-0.22926831
75	0xbe4842d9	-0.1955675
76	0x3d1cc069	0.038269434
77	0x3d234fca	0.039871015
78	0x3c8204bb	0.015871396
79	0x3c59dc36	0.013297131
80	0x3d6cbc1c	0.057796583
81	0x3b4d9eea	0.0031375238
82	0xbe08831b	-0.13331263
83	0x3e2ae32b	0.1668822
84	0x3d7229d4	0.05912192
85	0xbd7c037e	-0.061526768
86	0xbe166454	-0.1468671
87	0xbe5caa18	-0.2154926
88	0x3e7b1e55	0.2452329
89	0xbdd54aae	-0.10414635
90	0xbd202c3f	-0.039104696
91	0xbe73da6e	-0.23813793
92	0x3e30d33b	0.17268078
93	0x3e716fd7	0.2357782
94	0xbddcc377	-0.107794695
95	0x3e31d4b8	0.17366302
96	0xbe23abd9	-0.15983523
97	0x3e339a8c	0.17539424
98	0xbe144bd8	-0.14482057
99	0xbe97cbcf	-0.2964768
100	0x3dadc0ae	0.08484016
101	0x3e9b95f9	0.30387858
102	0xbe020ea1	-0.12700893
103	0xbe7389d3	-0.23783045
104	0xbe28d463	-0.16487269
105	0x3dbec250	0.09314406
106	0xbe4ce17e	-0.20007893
107	0xbd700861	-0.05860174
108	0xbe8d47f1	-0.2759395
109	0x3e128a85	0.14310654
110	0x3e67ae0c	0.22624987
111	0x3d287427	0.041126397
112	0xbe7ccd20	-0.24687624
113	0xbdd847df	-0.10560583
114	0x3dc5ec1b	0.09664174
115	0xbd0046db	-0.031317573
116	0xbe3601ad	-0.17774077
117	0x3e3dfc07	0.18553172
118	0xbdfb15d4	-0.12260023
119	0xbe50b64c	-0.2038204
120	0xbe14a6ec	-0.145168
121	0x3e5323b5	0.2061909
122	0x3cb12da0	0.021628201
123	0xbe968f34	-0.2940613
124	0xbd8ff6f0	-0.070295215
125	0x3d28b289	0.04118589
126	0x3dc03c83	0.09386542
127	0xbe95d082	-0.2926064
128	0xbe6de918	-0.2323345
129	0x3e3eed86	0.18645296
130	0xbe3d6b33	-0.18497925
131	0xbd8b25ae	-0.06794296
132	0x3c9f86fb	0.019473543
133	0xbe3b8eaf	-0.18316148
134	0x3eba842a	0.36428958
135	0xbe18cd0f	-0.14921974
136	0xbe198c94	-0.14995033
137	0xbd858016	-0.06518571
138	0xbe726a6e	-0.23673412
139	0xbebd2fc3	-0.36950502
140	0x3e279aef	0.16367696
141	0xbe5ddac9	-0.21665491
142	0xbe28b8a7	-0.1647669
143	0xbe542d6a	-0.20720449
144	0xbe684b71	-0.22685029
145	0xbdf92faa	-0.12167294
146	0xbdcac1f6	-0.09900276
147	0xbcfd3487	-0.030908836
148	0xbe333d16	-0.17503771
149	0xbbf475d2	-0.0074603343
150	0xbe18533e	-0.14875504
151	0x3d9001d5	0.070315994
152	0xbe31955c	-0.17342132
153	0x3e5afc05	0.213852
154	0x3e579e01	0.21056367
155	0xbd90d5f8	-0.07072061
156	0x3e126f82	0.1430035
157	0xbcf13d20	-0.029448092
158	0xbde74327	-0.11292105
159	0xbe365cd7	-0.17808853
160	0x3d9c07b6	0.07618658
161	0xbd597a78	-0.05309531
162	0xbdf234b3	-0.11826458
163	0x3e53e249	0.2069179
164	0xbc1823be	-0.009285865
165	0x3de8bc92	0.11364092
166	0xbdbda792	-0.09260477
167	0xbde09749	-0.10966355
168	0x3d778b22	0.06043542
169	0xbe503aa4	-0.2033487
170	0x3d0a6899	0.03379116
171	0x3e7be3da	0.24598637
172	0xbebfddd2	-0.37473923
173	0x3dad3ab2	0.08458461
174	0xbcceb344	-0.025231965
175	0x3ea1ceaf	0.31603
176	0xbe2180c5	-0.15771778
177	0x3e69aa6c	0.22818917
178	0x3d2a0588	0.04150918
179	0x3e6f4fe5	0.23370321
180	0xbe145dff	-0.14488982
181	0xbd5bfca8	-0.05370775
182	0x3ddaf341	0.10690928
183	0x3e33d28f	0.1756079
184	0xbe15c8c4	-0.14627367
185	0xbe64b9db	-0.22336523
186	0xbe3f0d73	-0.18657474
187	0xbdb2df40	-0.08733988
188	0x3dc7ea5e	0.09761499
189	0xbe07d5a5	-0.13265093
190	0xbd1764bd	-0.036961306
191	0xbe7a3e85	-0.24437912
192	0xbe954e97	-0.29161522
193	0xbdc04fd0	-0.09390223
194	0xbe788997	-0.24271236
195	0x3dd6ef4b	0.1049486
196	0x3d59dc5d	0.05318867
197	0x3dc5f161	0.0966518
198	0xbe4fdccf	-0.20299076
199	0x3e8f78a5	0.28021732
200	0x3d8f2e05	0.069911994
201	0xbd88c96b	-0.066790424
202	0xbcac499a	-0.02103119
203	0xbdb871a1	-0.09006048
204	0x3d1bd403	0.038043987
205	0x3d0f40cc	0.034973904
206	0xbca6f42b	-0.0203801
207	0x3d366d2c	0.04453771
208	0x3dd96285	0.10614494
209	0x3d99923a	0.07498594
210	0xbde0476c	-0.10951123
211	0x3e443239	0.19159783
212	0x3c9fc15f	0.019501386
213	0xbdef97f6	-0.11698906
214	0x3e60f57f	0.2196865
215	0xbe1cd2b8	-0.15314758
216	0xbd9cad9c	-0.07650301
217	0x3ea4d350	0.3219247
218	0x3e11bfbe	0.142333
219	0x3decb825	0.1155856
220	0x3e1e7475	0.15474112
221	0xbe0fa4fd	-0.14027782
222	0xbe37d5be	-0.1795263
223	0xbde0e063	-0.10980298
224	0x3dae48ef	0.08510005
225	0x3d1c10b6	0.038101874
226	0xbc73c901	-0.014879466
227	0x3dcd9e85	0.10040001
228	0xbc75163a	-0.0149589125
229	0xbe8daeef	-0.27672526
230	0xbcfb840b	-0.030702611
231	0xbda93436	-0.082619116
232	0xbc2b7174	-0.010464061
233	0xbdec31d5	-0.11532942
234	0xbe0366fc	-0.12832254
235	0x3e0b13af	0.13581727
236	0x3e285f99	0.16442718
237	0xbe248124	-0.16064888
238	0x3e273740	0.1632967
239	0xbd8e1f74	-0.06939593
240	0xbd9f4982	-0.077776924
241	0x3d88819a	0.066653445
242	0x3cf78f07	0.030219568
243	0x3d015db3	0.0315835
244	0xbdae1163	-0.0849941
245	0xbd1d86ea	-0.038458742
246	0xbe04abe1	-0.12956192
247	0xbea8e027	-0.32983515
248	0xbd1cf3c1	-0.0383184
249	0x3e48613a	0.19568339
250	0xbc3211c3	-0.010868493
251	0xbdf25b9b	-0.118338786
252	0x3bf53f49	0.007484351
253	0xbde1d9f6	-0.11027901
254	0xbe635006	-0.22198495
255	0x3dc96761	0.09834171

linear2.weight f4 [128, 512]
0	0x3eee3cb6	0.46530694
1	0xbe5f6976	-0.21817574
2	0xbd7546ee	-0.059882097
3	0xb9c6a2fe	-0.00037886942
4	0xbef846de	-0.48491567
5	0x3d8619eb	0.06547912
6	0x3f19e507	0.60115093
7	0xbdca19d8	-0.098682106
8	0xbf497c34	-0.78705144
9	0x3c9990ef	0.018745868
10	0xbec10e7c	-0.37706363
11	0xbf0bc736	-0.54600847
12	0xbcff0698	-0.031131074
13	0xbee41054	-0.44543707
14	0xbe709730	-0.23495173
15	0x3d0ae47b	0.033909302
16	0xbeb19bfc	-0.3468932
17	0xbe76a82b	-0.24087588
18	0xbec9ee9e	-0.39439863
19	0x3d19610d	0.03744607
20	0x3e9667df	0.29376122
21	0x3eb355bb	0.35026345
22	0xbd9eb587	-0.07749467
23	0x3c90f28d	0.017693782
24	0x3f1d9ba0	0.6156559
25	0x3d88d246	0.066807315
26	0x3e5b9abf	0.2144575
27	0xbe8210ea	-0.2540353
28	0x3dd315da	0.10306902
29	0xbe9e5dfa	-0.30931073
30	0xbec7f62e	-0.39055008
31	0xbe316fe4	-0.17327839
32	0x3e66bd41	0.22533132
33	0xbe3f4500	-0.18678665
34	0xbe8f4ba9	-0.27987412
35	0xbdb183f4	-0.08667746
36	0x3f19ed16	0.6012739
37	0x3eccfbf6	0.4003598
38	0xbea6053b	-0.32425866
39	0xbefb217d	-0.49048987
40	0xbe9ee2af	-0.3103232
41	0xbbee1b54	-0.0072664414
42	0x3c883c0d	0.016630197
43	0xbe7e5c17	-0.24839817
44	0xbe5786d2	-0.21047524
45	0x3e2c51ea	0.16828123
46	0xbec3a60f	-0.3821263
47	0xbf4cdd19	-0.8002487
48	0xbe638846	-0.22219953
49	0xbe5e957c	-0.21736711
50	0xbe8c72e8	-0.27431417
51	0x3e91b12d	0.28455487
52	0x3c439413	0.011937159
53	0xbde7a369	-0.11310465
54	0x3d4a1286	0.04933407
55	0xbe7a658f	-0.24452804
56	0xbed71529	-0.4200833
57	0xbe211aaa	-0.15732828
58	0xbe006a60	-0.12540579
59	0xbeebbd65	-0.46042934
60	0xbd7f8dbe	-0.062391035
61	0x3f148eb1	0.5803023
62	0x3e90b09d	0.28259745
63	0x3d9485fa	0.072521165
64	0xbf4cc963	-0.7999479
65	0xbeb1314b	-0.3460792
66	0xbf08e7c3	-0.5347864
67	0xbcb165b6	-0.021654945
68	0x3da80f02	0.082059875
69	0xbea4e5d3	-0.32206592
70	0x3d9824fb	0.074289285
71	0x3dba75dc	0.09104511
72	0xbed918dd	-0.42401782
73	0x3e0c4372	0.13697603
74	0x3f1e0f49	0.61742073
75	0xbc106473	-0.008813011
76	0x3ed487c9	0.41509846
77	0xbe93a4c3	-0.2883664
78	0x3da59083	0.08084204
79	0xbf669841	-0.9007607
80	0x3dd1fa54	0.102528244
81	0x3df4c469	0.11951525
82	0x3e647310	0.22309518
83	0xbdd6997e	-0.10478495
84	0xbe055717	-0.13021503
85	0xbd96e393	-0.07367625
86	0xbbc5cc38	-0.0060363077
87	0x3ac7b282	0.0015235695
88	0x3d2ae3a7	0.041721012
89	0xbec71ac7	-0.38887617
90	0x3f14bfe8	0.58105326
91	0x3d0ef772	0.03490395
92	0xbd513f77	-0.051085915
93	0x3e9eaccc	0.3099121
94	0xbd373ba2	-0.044734605
95	0x3e980484	0.29690945
96	0x3d421373	0.04738183
97	0x3ecfde58	0.40599322
98	0x3f0687b5	0.5255082
99	0x3eba9ae1	0.36446288
100	0xbe298929	-0.16556229
101	0x3e379a56	0.17929968
102	0xbd88ba07	-0.06676107
103	0xbe5a3623	-0.21309714
104	0x3e29c5ae	0.16579315
105	0x3e543da2	0.20726636
106	0x3e319f84	0.17346007
107	0xbc8089bc	-0.015690677
108	0xbce880d6	-0.028381746
109	0xbf160289	-0.5859762
110	0x3f149e52	0.5805408
111	0xbe0cac65	-0.13737638
112	0x3edbfa0f	0.42964217
113	0x3dbd9f7a	0.09258933
114	0x3e601fbf	0.2188711
115	0x3d48e35b	0.049044948
116	0xbee71691	-0.45134404
117	0x3e9a0a38	0.3008592
118	0xbe6def21	-0.23235752
119	0x3ec74416	0.38919133
120	0x3d015537	0.031575408
121	0x3d3d8059	0.04626498
122	0xbeb8ad79	-0.3606985
123	0xbe3d711e	-0.18500182
124	0xbea878d2	-0.3290468
125	0xbf0ff22e	-0.5622891
126	0x3e2adbf2	0.16685465
127	0x3deab8f8	0.11461061
128	0x3d3dc96d	0.046334673
129	0xbf7816b8	-0.96909666
130	0x3c0a5841	0.008443893
131	0x3ba1dce8	0.004939664
132	0xbe3f3182	-0.1867123
133	0x3df5dda3	0.120051645
134	0xbc5659bc	-0.013082918
135	0x3e1274ab	0.14302318
136	0x3f0214de	0.5081309
137	0x3dcb240f	0.09918987
138	0x3e5e9768	0.21737444
139	0xbcbc6913	-0.022999322
140	0x3ead94bb	0.33902535
141	0xbd87b921	-0.066271074
142	0x3e5ff2cd	0.21869965
143	0x3e8a46c0	0.27007103
144	0xbd03787a	-0.032097317
145	0xbd541fc3	-0.051788103
146	0x3dbea308	0.093084395
147	0x3dbf4eee	0.093412265
148	0x3d4254b7	0.04744407
149	0xbdc53ab6	-0.09630339
150	0xbe49ee96	-0.1971992
151	0xbe32b0b1	-0.17450215
152	0x3e568b88	0.20951664
153	0xbca51f9b	-0.020156672
154	0x3edcd865	0.43133846
155	0xbc5b3ffc	-0.013381954
156	0x3ed8daf1	0.4235454
157	0xbfabf91a	-1.3435395
158	0xbdf9340a	-0.12168129
159	0x3f09f739	0.53892857
160	0xbda4794b	-0.08030947
161	0xbc639149	-0.013889619
162	0xbe735c0e	-0.23765585
163	0xbe919959	-0.28437307
164	0xbd1d2783	-0.03836776
165	0xbd586262	-0.0528282
166	0xbe58f57e	-0.21187398
167	0x3dc9c662	0.09852292
168	0x3e3ce1ad	0.18445463
169	0xbef7170d	-0.48259774
170	0xbed1d1f6	-0.409805
171	0x3ea6ab66	0.32552642
172	0xbcb1325a	-0.021630455
173	0xbdcc226d	-0.09967504
174	0x3d99e0dc	0.07513592
175	0xbe506bd6	-0.20353636
176	0xbd312c7e	-0.04325532
177	0xbecd8ab5	-0.40144888
178	0xbf065d93	-0.5248653
179	0x3f2cfe3b	0.67575425
180	0xbe6f9469	-0.23396458
181	0x3d3616b2	0.044455238
182	0xbe811d18	-0.2521751
183	0x3e696795	0.2279342
184	0x3d3a5695	0.045492727
185	0xbdd98d74	-0.10622683
186	0x3ea49380	0.32143784
187	0x3ee1c44f	0.44095084
188	0x3f316f10	0.6931009
189	0x3dfe424f	0.12414991
190	0xbea13143	-0.31482896
191	0x3ebb4d95	0.36582628
192	0x3d9fef82	0.07809354
193	0xbf1db8ef	-0.6161031
194	0x3e0394e5	0.12849768
195	0x3ee3b8eb	0.4447702
196	0x3e914d6c	0.2837938
197	0xbf056f76	-0.521232
198	0x3f2971a8	0.6618905
199	0xbd424eda	-0.04743848
200	0x3ec894ee	0.39176124
201	0xbcbe8ac2	-0.023259524
202	0xbf834a05	-1.0256964
203	0xbd0cf497	-0.034412947
204	0xbedceefb	-0.43151078
205	0xbf40912c	-0.75221515
206	0x3e5f52e9	0.21808971
207	0x3e7ef9f7	0.24900042
208	0xbe2191fb	-0.15778343
209	0xbe8efda4	-0.27927887
210	0xbd3ea9a8	-0.046548516
211	0xbe9f6964	-0.31135094
212	0x3c088a5b	0.008333768
213	0x3d816335	0.0631775
214	0x3e3027fa	0.1720275
215	0x3c4c49e6	0.012468791
216	0x3d32ef46	0.04368522
217	0xbe1867b2	-0.14883307
218	0xbdc30327	-0.09522086
219	0x3e16159a	0.14656678
220	0xbcca3314	-0.02468256
221	0x3e45705c	0.19281143
222	0xbe14cdf6	-0.14531693
223	0xbe8ee4a5	-0.27908817
224	0xbe0a4ac8	-0.1350509
225	0xbd84d33a	-0.06485601
226	0x3ec42346	0.38308161
227	0x3eac37e6	0.33636397
228	0x3ebe8c05	0.372162
229	0x3d2ca008	0.042144805
230	0xbea2bd3c	-0.31785
231	0x3dd65553	0.10465493
232	0x3e991557	0.29899094
233	0xbebb241b	-0.36550984
234	0x3cc68339	0.024232494
235	0xbf29b653	-0.6629383
236	0x3f1e31ff	0.6179504
237	0xbe895e99	-0.26829985
238	0xbe0ef16b	-0.13959281
239	0x3d0a1201	0.033708576
240	0xbcdc79ad	-0.026913488
241	0xbb81aa28	-0.003957052
242	0x3b7e78e9	0.0038829392
243	0x3e5a3c33	0.21312027
244	0x3e5e0206	0.2168046
245	0x3c59d3ac	0.013295095
246	0x3e5a5e29	0.21324982
247	0xbf42801f	-0.7597675
248	0xbe7d9c5a	-0.24766675
249	0x3f10f587	0.56624645
250	0xbeda31c8	-0.42616105
251	0x3f037148	0.5134473
252	0xbf006360	-0.50151634
253	0xbd561876	-0.05226942
254	0x3dfd950d	0.12381945
255	0xbec031fe	-0.3753814

linear2.bias f4 [128]
0	0xbe320a26	-0.17386684
1	0x3dc85e1d	0.09783576
2	0xbe2f176c	-0.17098778
3	0xbce9cd61	-0.028540315
4	0xbe1ad546	-0.1512042
5	0xbdc3b6cf	-0.09556352
6	0xbd0d2f33	-0.03446884
7	0xbe429d75	-0.19005378
8	0xbdc1beaf	-0.09460198
9	0x3cc50b6d	0.0240533
10	0xbccea827	-0.025226666
11	0x3d257f91	0.04040486
12	0xbb82234d	-0.0039714933
13	0xbebd4405	-0.36965957
14	0xbda190c9	-0.07888944
15	0xbe4e4ebc	-0.20147222
16	0xbe387943	-0.18015008
17	0xbc0d8523	-0.008637699
18	0xbd2c9195	-0.042131025
19	0xbdea74a2	-0.11448027
20	0x3e496ab9	0.19669618
21	0xbd6a3229	-0.057176743
22	0xbcc58a2b	-0.024113735
23	0xbc71b9e6	-0.014753794
24	0xbc6a6d25	-0.014308249
25	0xbe22063f	-0.15822695
26	0xbcc47fc3	-0.023986703
27	0x3e381797	0.17977749
28	0xbdab12aa	-0.08353169
29	0x3d93cdd2	0.072169915
30	0xbde9d3db	-0.11417361
31	0xbd73b106	-0.059494995
32	0xbd7b9cc2	-0.061428793
33	0x3db832b0	0.08994043
34	0xbe042527	-0.12904797
35	0xbceba5a5	-0.028765509
36	0xbe03fe19	-0.128899
37	0xbd8d689f	-0.069047205
38	0xbcb24bfe	-0.021764752
39	0xbce277a5	-0.027644942
40	0xbb834487	-0.004005972
41	0xbdabb877	-0.08384793
42	0x3e3c8dbd	0.18413444
43	0xbdc981cb	-0.09839209
44	0xbc7c0da6	-0.015384113
45	0xbd6712f1	-0.05641455
46	0xbde1edc1	-0.11031676
47	0xbcbf7358	-0.02337043
48	0xbdbe495e	-0.092913374
49	0xba92d420	-0.0011202134
50	0xbd207f3d	-0.039183844
51	0xbd30e885	-0.043190498
52	0xbd20b9f1	-0.039239828
53	0xbda94765	-0.082655706
54	0xbd2f7315	-0.04283436
55	0xbd068387	-0.032840278
56	0xbd841583	-0.064494155
57	0xbd9421b8	-0.07232994
58	0xbc86e187	-0.016464962
59	0xbe896be7	-0.26840135
60	0xbea72249	-0.32643345
61	0xbd8a81a7	-0.067630105
62	0xbcec76a1	-0.02886516
63	0xbcd2c3b8	-0.025728092
64	0x3e7e6f35	0.2484711
65	0x3e365099	0.17804183
66	0xbd4439d7	-0.047906723
67	0xbdb99903	-0.09062388
68	0xbd8fcabb	-0.0702109
69	0x3d89fb85	0.06737427
70	0xbd9e0527	-0.077158265
71	0xbd1c9b32	-0.038233943
72	0xbd3494aa	-0.04408709
73	0xbdc1461d	-0.09437201
74	0xbd33f30a	-0.043932952
75	0xbc17dc68	-0.009268858
76	0x3def06f1	0.11671246
77	0xbcee1f3d	-0.02906763
78	0xbd8aac3b	-0.067711316
79	0xbbd49c60	-0.006488368
80	0xbd43d893	-0.047813963
81	0xbc9a48b8	-0.018833503
82	0xbd406d93	-0.046979498
83	0xbd8cfd33	-0.068842314
84	0xbdd76d00	-0.10518837
85	0xbe43db3b	-0.19126599
86	0xbd40c1f3	-0.047059964
87	0x3e7825f1	0.24233223
88	0xbe9a7402	-0.30166632
89	0xbd9440bc	-0.072389096
90	0xbe0718ca	-0.1319305
91	0x3dffdaef	0.1249293
92	0xbc124460	-0.008927435
93	0x3e6127d9	0.21987857
94	0xbdfe32b4	-0.124120146
95	0xbcb51b86	-0.02210785
96	0x3c2e694c	0.010645222
97	0x3aa59c57	0.0012635094
98	0xbd0e48d7	-0.034737434
99	0xbc2c5bad	-0.010519904
100	0xbca2c57f	-0.019869564
101	0xbdbcb56a	-0.092142895
102	0x3bf165e9	0.007366885
103	0xbd854410	-0.065071225
104	0xbcdd6854	-0.027027287
105	0xbd1efcaf	-0.038815197
106	0xbd47b66b	-0.04875795
107	0xbdc6f2fa	-0.09714313
108	0x3b0f8fca	0.0021905773
109	0x3e55e538	0.20888221
110	0xbe441a61	-0.19150688
111	0xbd7c7aa2	-0.06164039
112	0x3ebf4cd1	0.37363294
113	0x3eb61415	0.35562196
114	0xbd66c14c	-0.056336686
115	0xbea015c7	-0.31266615
116	0xbd96cfe4	-0.07363871
117	0xbcf5cb64	-0.03000421
118	0xbd5bed6c	-0.05369322
119	0xbd31790e	-0.043328337
120	0x3d537871	0.051628534
121	0xbda19899	-0.07890434
122	0xbdcfce4b	-0.10146769
123	0xbd460c3f	-0.048351523
124	0xbd3b5f0a	-0.045744933
125	0x3d31771d	0.043326486
126	0x3e8e6ee9	0.27818993
127	0xbd81053c	-0.062998265

linear3.weight f4 [3, 128]
0	0x3f906bd6	1.1282909
1	0xbfde6f2b	-1.7377676
2	0xbe8d3ff6	-0.2758786
3	0xbd06473b	-0.032782774
4	0xbebe19aa	-0.37128955
5	0x3f5a9eda	0.8539864
6	0xbd33fb3d	-0.04394077
7	0xbf8a0c20	-1.078495
8	0x3d343765	0.04399814
9	0x3f0e32f0	0.55546474
10	0xbceaaf8d	-0.028648162
11	0x3edc5cde	0.43039602
12	0x3e4115bf	0.18855952
13	0xbe3c641d	-0.18397565
14	0xbc770d2d	-0.015078825
15	0xbd913fc6	-0.07092242
16	0xbd8ac7d4	-0.067763954
17	0xbd78f895	-0.06078394
18	0xbb63500d	-0.0034685165
19	0x3dc5319f	0.09628605
20	0xbe3b7302	-0.18305591
21	0x3d0ce496	0.034397684
22	0xbc0c9cb6	-0.008582285
23	0xbd4587d3	-0.048225235
24	0xbbc21693	-0.005923101
25	0x3e260585	0.16213043
26	0xbc692a7c	-0.0142313205
27	0xbe9f86a2	-0.31157404
28	0x3f09d3d0	0.53838825
29	0x3f89f1fe	1.0776975
30	0xbd156b03	-0.036479007
31	0xbc0e9ec6	-0.008704847
32	0xbc09372e	-0.008374972
33	0x3f218d63	0.63106364
34	0xbf3ced6b	-0.7379977
35	0xba59416f	-0.00082876434
36	0x3e4444c7	0.19166861
37	0xbd899872	-0.0671853
38	0x3d3740bd	0.044739474
39	0x3b917170	0.0044385716
40	0xbc9f07f3	-0.01941297
41	0xbf314a41	-0.6925393
42	0x3fc66546	1.5499656
43	0x3cc94c47	0.024572505
44	0x3d7e0bce	0.062022977
45	0x3d305479	0.04304931
46	0x3ce8e6e8	0.028430417
47	0x3eb6fb45	0.35738578
48	0xbe4f8c46	-0.20268354
49	0x3c9b3700	0.018947124
50	0xbe1af61f	-0.1513295
51	0xbf46c189	-0.7763906
52	0xbd25107c	-0.040298924
53	0x3d89bf82	0.0672598
54	0x3d5cc88f	0.053902205
55	0xbf9cc534	-1.2247682
56	0xbc22dd34	-0.009940434
57	0x3d2f2bfc	0.042766556
58	0xbc46f126	-0.012142455
59	0xbf939d4a	-1.1532376
60	0xbf3538f6	-0.7079004
61	0xbc2e4cf1	-0.010638461
62	0x3b8966d6	0.004193167
63	0x3cc68f7f	0.024238346
64	0x3d258a77	0.040415253
65	0x3f53ee3b	0.82785386
66	0xbd8bef47	-0.06832748
67	0x3e90eb2e	0.28304428
68	0xbf2bd3c4	-0.67120004
69	0xbe94b6de	-0.29045767
70	0x3ef16ecd	0.47154847
71	0x3d953de3	0.072871946
72	0xbf71874b	-0.94347066
73	0x3f23f0ad	0.6403912
74	0xbd48f142	-0.049058206
75	0x3b76c3be	0.0037653293
76	0xbe02e0c6	-0.12781057
77	0x3c6158ec	0.013754111
78	0x3cb9ff15	0.02270464
79	0xbc9bea4b	-0.019032618
80	0xbd97dc03	-0.07415011
81	0xbab0eb42	-0.0013497847
82	0xbc3a4502	-0.011368992
83	0xbd460e96	-0.048353754
84	0x3eee265e	0.46513647
85	0x3eab43fa	0.334503
86	0x3d55fbf0	0.05224222
87	0xbed9b61d	-0.42521754
88	0xbee0be14	-0.43895018
89	0x3e8d397e	0.27582926
90	0xbf98c34a	-1.1934597
91	0x3f0897be	0.5335654
92	0xbc718141	-0.014740289
93	0xbeb0cb4d	-0.34530106
94	0x3f20adfb	0.62765473
95	0x3bc527ba	0.0060166987
96	0x3e555ce6	0.20836219
97	0xbf7a4d67	-0.97774357
98	0x3ccc27eb	0.024921378
99	0xbbfd4c66	-0.0077300547
100	0x3c039b3e	0.008032618
101	0x3faeb724	1.364964
102	0x3bcba50f	0.006214745
103	0xbe71378a	-0.23556343
104	0x3cd07d4b	0.02545037
105	0xbe9dd99d	-0.30830088
106	0xbce14758	-0.02749984
107	0xbf1b127d	-0.60575086
108	0xbd4f708b	-0.05064444
109	0x3f200959	0.62514263
110	0xbbbd8776	-0.0057839705
111	0xbd327d36	-0.04357644
112	0xbde507da	-0.11183138
113	0x3f1f4b9d	0.6222475
114	0x3c329a81	0.010901094
115	0x3e529410	0.20564294
116	0x3c264834	0.0101490505
117	0x3f088c4c	0.53339076
118	0x3d1994a4	0.03749527
119	0xbc35ee75	-0.011104216
120	0x3f180b48	0.59392214
121	0xbcbb2792	-0.022846017
122	0x3d0acc42	0.0338862
123	0x3d3ff735	0.046866614
124	0x3bf8bd35	0.0075909146
125	0xbdfa559b	-0.12223359
126	0xbe287d01	-0.16453935
127	0x3d2db8e4	0.042412654
128	0x3f3cad88	0.7370229
129	0xbf3ee97c	-0.7457502
130	0x3e90a85e	0.28253454
131	0x3ccbf13b	0.024895301
132	0xbd6c1fa7	-0.057647374
133	0xbed8e41d	-0.42361537
134	0xbc9074b3	-0.017633772
135	0xbfb33b7d	-1.4002529
136	0xbc18d1b8	-0.009327345
137	0xbe100529	-0.14064468
138	0xbcfbd7bd	-0.03074252
139	0x3bede4b9	0.007259932
140	0x3f8c2fbf	1.0952071
141	0xbe332ea2	-0.17498258
142	0xbdcc158f	-0.099650495
143	0xbd53a8df	-0.05167472
144	0x3f8b523b	1.088447
145	0xbd038df6	-0.032117806
146	0xbcffe6ce	-0.031237986
147	0xbf14a499	-0.58063656
148	0x3f9ba4d1	1.2159673
149	0x3db9c672	0.090710536
150	0x3d754fde	0.05989062
151	0xbc55fd1b	-0.013060833
152	0xbd27d0c8	-0.040970594
153	0xbf19a995	-0.60024387
154	0xbd6a021d	-0.05713092
155	0x3ee57791	0.44817784
156	0x3f1cec81	0.61298376
157	0x3d887445	0.06662802
158	0x3d21b06d	0.039474893
159	0x3ccf18a7	0.02528031
160	0x3d2b2e81	0.041792396
161	0xbebdc165	-0.3706161
162	0x3f8121cc	1.0088439
163	0x3c01d813	0.007925051
164	0x3e08db30	0.13364863
165	0x3c3b1279	0.011417978
166	0x3c835873	0.016033387
167	0x3cc78727	0.024356438
168	0x3c5c9d97	0.013465307
169	0x3f562cd4	0.8366215
170	0x3e25a366	0.16175613
171	0xbd848ca6	-0.06472139
172	0xbd48cd52	-0.049023934
173	0x3bf66085	0.0075188302
174	0x3ce54e98	0.027991578
175	0xbf1eff08	-0.62107897
176	0x3df45a09	0.11931235
177	0x3a56ebc8	0.00081985863
178	0xbf01f5a4	-0.5076544
179	0x3ef19aa2	0.47188288
180	0x3d2cab5d	0.042155612
181	0xbca49f35	-0.020095447
182	0x3ceda4f8	0.029009327
183	0xbfa99df7	-1.3251332
184	0x3ccdb6c0	0.025111556
185	0x3ce32f3d	0.027732486
186	0xbc9aedf3	-0.018912291
187	0xbfba411b	-1.4551119
188	0xbea1e64f	-0.31621024
189	0xbc8dff67	-0.0173337
190	0x3d5e30b7	0.054245677
191	0x3d1cfe78	0.038328618
192	0x3f1a669d	0.60312825
193	0x4003646e	2.0530047
194	0xbd48cbc2	-0.049022444
195	0x3e51b9bd	0.2048101
196	0xbf132715	-0.5748151
197	0xbd811aa7	-0.06303912
198	0x3e818668	0.25297856
199	0xbee7e31b	-0.45290455
200	0xbfaba506	-1.3409736
201	0xbe952d11	-0.29135945
202	0x3d5f4e43	0.054517996
203	0x3d66d0ed	0.05635159
204	0x3f158c34	0.5841706
205	0xbba295b8	-0.0049616955
206	0xbd0d9cf6	-0.034573518
207	0x3d95b9ec	0.073108524
208	0xbc78f8fa	-0.015196079
209	0x3ca40de5	0.020026157
210	0xbc9b9717	-0.018992944
211	0x3cab63a1	0.02092153
212	0xbf1fc4a0	-0.624094
213	0x3f64b640	0.8934059
214	0xbce86858	-0.028370067
215	0x3e9686df	0.29399773
216	0xbeb823aa	-0.3596471
217	0x3d9c656b	0.076365314
218	0xbf580e06	-0.843964
219	0x3ed492f6	0.41518372
220	0xbc05e20e	-0.008171571
221	0x3f1a55dc	0.6028726
222	0xbf4132b8	-0.75468016
223	0x3d36998d	0.04458003
224	0x3f42befc	0.7607267
225	0x3f13d42a	0.5774561
226	0x3b1e023b	0.0024110216
227	0xbaaeaab1	-0.0013326016
228	0x3cc55e2b	0.024092754
229	0xbf11fc41	-0.57025534
230	0x3d94447b	0.07239624
231	0xbeaf8776	-0.34283036
232	0x3c41bd82	0.011824967
233	0xbe85c921	-0.26130012
234	0xbc5c1f6c	-0.013435226
235	0xbfff042f	-1.9923152
236	0xbc428afb	-0.011873956
237	0x3d25160c	0.04030423
238	0xbf47093c	-0.77748466
239	0x3cb628a9	0.022236185
240	0x3f3074a5	0.68927985
241	0x3f063b88	0.5243459
242	0xbd59c31f	-0.053164598
243	0xbf57cce2	-0.84297
244	0x3d8b0271	0.06787575
245	0xbf59c177	-0.8506083
246	0x3c892c3f	0.016744731
247	0x3c46f50e	0.0121433865
248	0x3e1c07be	0.15237328
249	0x3ce632b8	0.028100356
250	0xbd9c64f3	-0.07636442
251	0xbd732cfd	-0.059369076
252	0xbd1c53c3	-0.03816582
253	0x3ef58b29	0.47957733
254	0x3f1ed0ce	0.6203736
255	0xbcf5f196	-0.030022424

linear3.bias f4 [3]
0	0xbe952ca7	-0.2913563
1	0x3e355e39	0.17711724
2	0xbe040639	-0.12892999
